problem_2b_model.pt (torch, 76137 bytes, 8 tensors)

conv1.weight f4 [16, 3, 3, 3]
0.24189898 -0.17886814 0.053163767 0.100231655 -0.18545894 0.19110993 -0.19707797 0.55967003
-0.14022763 0.5124134 -0.23610146 0.3997029 0.17085794 -0.37579763 0.37571475 0.08057393
-0.36797094 0.16877767 0.05922214 0.057791494 -0.074183464 0.21233208 -0.4591405 -0.065207474
-0.0020013654 -0.023006558 -0.15326126 0.17494564 0.23933461 0.5681852 -0.24810119 -0.102560535
-0.13129403 -0.17994362 -0.2357277 -0.46391395 -0.028727086 -0.11530227 0.34061858 -0.0888591
-0.2736982 0.1284678 -0.13415007 -0.42246002 -0.43508142 0.33109117 0.07491115 0.00404511
0.09102118 0.4138928 -0.11787263 -0.37262025 0.116239876 0.29377055 0.4030356 0.33663335
0.19074479 0.37891552 0.41915998 0.08351154 -0.12527508 -0.016869687 0.009904302 0.15112
0.11017858 -0.18760842 0.1513947 -0.48733297 -0.45731863 -0.39030984 -0.4793306 -0.1358751
0.05073774 0.19434698 0.36789146 -0.23761399 -0.3864319 0.3125298 -0.09339562 0.07986709
-0.3215239 0.29907918 -0.09687199 0.047974527 0.023461297 -1.1262494 0.29556024 -0.59072345
0.31402987 0.3691449 0.31478888 -0.32666874 0.09237385 0.6697848 -0.9287336 0.7698353
-0.32200792 -0.04724218 0.4813276 -0.07498068 -0.8420074 0.44555062 -0.0938883 -1.3215146
1.2518289 -0.64139104 0.018964652 0.8006492 0.08784234 -0.4839712 0.38990057 0.18823862
0.008417488 -0.47836962 -0.49283236 0.98026586 -0.46194062 -0.11475333 -0.5940154 -0.020580124
0.28600863 0.22329912 -0.29124406 -0.40553594 0.80395246 -0.36720982 0.7719084 -0.37730744
0.1595333 0.82894653 0.23836787 -0.6717542 -0.066502795 0.7684873 -0.75503796 0.18151435
1.1827383 -0.13071583 -0.38171676 0.27468133 -0.36953783 -0.73939085 0.32577425 -0.34695637
-0.4567114 0.67443186 -0.3389836 -0.7751727 -0.116565295 -0.99487144 0.11796312 1.4800491
0.03260705 -0.13606542 0.7789813 0.07389155 -0.57686687 -0.40217042 -0.6848647 0.14294936
0.8409063 0.1563367 -0.17115776 0.12056306 0.21618594 -0.27558297 -0.19957158 0.31613293
-0.30859548 -0.09718972 0.18073334 0.02436622 -0.2834427 0.4820147 -0.17501283 -0.3371786
0.387232 -0.3187454 -0.26319733 0.33316204 -0.5170792 -0.08021203 0.21497416 -0.3956734
-0.037944213 0.18385832 -0.12960482 -0.019212043 0.42099547 -0.23451468 0.25699383 0.041147538
0.1765434 -0.067751855 -0.31573516 0.34053046 0.36894262 0.15215904 0.14654507 0.38408706
-0.26343834 -0.029680127 0.29567784 -0.45781797 -0.11523609 -0.13890404 -0.41543493 -0.20119573
0.24079806 -0.32750395 0.06611047 0.49591282 -0.037168134 -0.082215175 -0.03282367 -0.37151217
-0.5643112 0.5061492 0.18422592 0.6945521 -0.5322661 0.025024021 -0.12779479 -0.053044412
-0.19377175 -0.62888575 0.76286995 -0.06547723 0.83361185 -0.8725948 -0.24300663 -0.21872541
0.13770415 0.06909662 -0.8368898 0.46904373 -0.06126809 0.7692317 -0.9272575 -0.26109105
-0.18871936 0.08711568 0.32181668 0.009045284 -0.4849847 -0.91231114 0.025725098 0.6280182
0.51845074 0.31438476 -0.2747004 0.33298105 0.3297903 -0.011104804 -0.29991347 -0.17558765
00000000: 5eb4 773e 3629 37be 40c2 593d 4146 cd3d
00000010: f3e8 3dbe 52b2 433e cfce 49be 8946 0f3f
00000020: d597 0fbe 862d 033f 95c4 71be dca5 cc3e
00000030: 62f5 2e3e 8c68 c0be af5d c03e f203 a53d
00000040: b066 bcbe 0ed4 2c3e ea92 723d c6b6 6c3d
00000050: 80ed 97bd 956d 593e 7714 ebbe 7f8b 85bd
00000060: 5729 03bb 4078 bcbc 85f0 1cbe f324 333e
00000070: 2214 753e 9674 113f 3d0e 7ebe 420b d2bd
00000080: f171 06be 2443 38be 9a62 71be 2186 edbe
00000090: 1155 ebbc 9923 ecbd 8f65 ae3e c3fb b5bd
000000a0: 2c22 8cbe 108d 033e a35e 09be ae4c d8be
000000b0: fec2 debe c884 a93e 046b 993d d88c 843b
000000c0: 5069 ba3d c2e9 d33e 3567 f1bd 15c8 bebe
000000d0: 2c0f ee3d 1869 963e af5a ce3e 355b ac3e
000000e0: 9a52 433e 3701 c23e 239c d63e 1908 ab3d
000000f0: 1c48 00be 4c32 8abc a745 223c 34bf 1a3e
00000100: 4fa5 e13d 6c1c 40be 3607 1b3e b583 f9be
00000110: ab25 eabe b1d6 c7be d26a f5be d822 0bbe
00000120: 60d2 4f3d e502 473e 455c bc3e 1551 73be
00000130: 67da c5be e803 a03e 3446 bfbd 5b91 a33d
00000140: c89e a4be e820 993e d264 c6bd f080 443d
00000150: e831 c03c f128 90bf ac53 973e a739 17bf
00000160: 86c8 a03e 8f00 bd3e 022c a13e 2041 a7be
00000170: 802e bd3d 0477 2b3f 7cc1 6dbf ed13 453f
00000180: 39de a4be 0481 41bd 9270 f63e 798f 99bd
00000190: cc8d 57bf 361f e43e 8248 c0bd 6427 a9bf
000001a0: ee3b a03f 3432 24bf c25b 9b3c 59f7 4c3f
000001b0: afe6 b33d 13cb f7be 0ca1 c73e a0c1 403e
000001c0: 81e9 093c ddec f4be 8654 fcbe b4f2 7a3f
000001d0: 7b83 ecbe cb03 ebbd 6511 18bf a697 a8bc
000001e0: b96f 923e 86a8 643e f11d 95be 68a2 cfbe
000001f0: d4cf 4d3f ed02 bcbe ca9b 453f 712e c1be
00000200: b35c 233e d735 543f b516 743e 15f8 2bbf
00000210: 9e32 88bd 95bb 443f 2b4a 41bf e6de 393e
00000220: f863 973f 5fda 05be 6170 c3be 08a3 8c3e
00000230: 1034 bdbe b848 3dbf e2cb a63e 44a4 b1be
00000240: 14d6 e9be 91a7 2c3f 428f adbe b871 46bf
00000250: c9b9 eebd e5af 7ebf a696 f13d 4072 bd3f
00000260: f88e 053d bc54 0bbe 526b 473f 7454 973d
00000270: 8cad 13bf 48e9 cdbe 4b53 2fbf 5161 123e
00000280: a345 573f ba16 203e fb43 2fbe c4e9 f63d
00000290: d95f 5d3e 3619 8dbe 7e5c 4cbe 2ddc a13e
000002a0: 3a00 9ebe 670b c7bd 2912 393e ab9b c73c
000002b0: 671f 91be a1ca f63e 9036 33be aca2 acbe
000002c0: 4643 c63e 9932 a3be cdc1 86be 3794 aa3e
000002d0: 4d5f 04bf 3446 a4bd 3022 5c3e b495 cabe
000002e0: 646b 1bbd 5b45 3c3e 20b7 04be 9362 9dbc
000002f0: b88c d73e 9e24 70be b294 833e 528a 283d
00000300: cbc7 343e 7cc1 8abd 0aa8 a1be 025a ae3e
00000310: 0ce6 bc3e 94cf 1b3e e90f 163e 0fa7 c43e
00000320: 64e1 86be bd23 f3bc 1663 973e 1e67 eabe
00000330: e600 ecbd dc3c 0ebe e3b3 d4be 4106 4ebe
00000340: c493 763e 99ae a7be ed64 873d 49e8 fd3e
00000350: 9d3d 18bd 6e60 a8bd 1d72 06bd d836 bebe
00000360: b376 10bf fe92 013f b8a5 3c3e 2bce 313f
00000370: 9742 08bf 2dff cc3c a3dc 02be 1945 59bd
00000380: 1a6c 46be a8fe 20bf 724b 433f ed18 86bd
00000390: 9667 553f 5f62 5fbf bbd6 78be 8ef9 5fbe
000003a0: 5102 0d3e 8782 8d3d 693e 56bf 8026 f03e
000003b0: 40f4 7abd 5eec 443f bf60 6dbf baad 85be
000003c0: a63f 41be b569 b23d 28c5 a43e ac32 143c
000003d0: ea4f f8be 398d 69bf 71bd d23c cdc5 203f
000003e0: 30b9 043f 0af7 a03e 88a5 8cbe 7e7c aa3e
000003f0: 46da a83e edf0 35bc 428e 99be 40cd 33be

conv1.bias f4 [16]
0.2980871 -0.49286437 -1.3234959 -0.20581885 -0.02436183 -1.367651 -1.9618537 -1.0144576
-0.43249696 -1.0500641 -0.073249266 -1.0976318 -0.9633142 -1.0599008 0.13022938 -0.040173247
00000000: df9e 983e b858 fcbe 5068 a9bf 2dc2 52be
00000010: 7692 c7bc 300f afbf 061e fbbf bfd9 81bf
00000020: 3e70 ddbe 8068 86bf b603 96bd 337f 8cbf
00000030: c29b 76bf d4aa 87bf da5a 053e b48c 24bd

conv2.weight f4 [8, 16, 3, 3]
-0.0035959724 -0.22532298 -0.2712437 0.04793386 0.0640039 0.3601118 -0.0035679096 -0.16440468
0.44573587 -0.1070928 -0.025172316 0.015345761 0.1005045 0.2922066 -0.15698534 -0.1115894
-0.11449026 -0.26414132 -0.03877053 0.12753233 -0.039897688 0.0058378237 -0.048397508 -0.025686804
0.23069814 -0.39258277 0.27645797 -0.060785748 0.021393308 0.13403079 0.0289698 0.32211584
0.2913089 0.25686017 0.09510354 0.012995104 -0.1904919 0.09688176 -0.08803387 -0.082933486
0.1806311 0.10669036 -0.03156578 0.03703091 -0.34180024 -0.112746425 0.1375353 0.1866265
0.108802736 0.11359518 0.5194825 0.22689131 -0.15228918 0.21219537 -0.22987798 -0.118570335
0.062095992 0.16592404 0.45888606 0.07639166 0.2084095 -0.2296083 -0.15915348 0.24557035
-0.014827368 -0.09744222 0.3485611 0.083657 -0.054847073 0.15160578 0.30970812 0.23704152
-0.3510065 -0.14985059 -0.117286 -0.0725943 0.028584186 -0.29541215 0.056169443 -0.44159806
0.012786985 -0.29100087 -0.17391747 -0.15492664 -0.036908563 0.20698032 -0.39771566 -0.16006352
0.25218096 -0.17429376 -0.24644664 -0.42060423 -0.02705223 -0.22453904 -0.17880225 0.12539452
-0.1548648 -0.21669522 -0.2441278 -0.12261815 -0.15298708 -0.011464005 0.04300021 0.051161774
0.0957261 -0.016642828 -0.086489536 -0.11463337 0.10091073 0.105881214 0.46020856 0.3212505
0.13199095 0.28475106 0.18138848 0.14672868 0.42323586 -0.03876412 -0.38454932 0.05605921
-0.2302667 -0.13687187 0.13705021 -0.051725365 -0.025284715 -0.12996665 -0.15884389 -0.1566955
0.103321634 -0.020374749 0.54579574 -0.021705635 0.30211228 -0.019666431 -0.078373626 -0.05198023
0.076086655 0.042935573 -0.2758672 0.28973126 -0.106097385 0.0691944 0.4618885 -0.10014782
-0.18850145 0.21119073 -0.14775434 -0.21316727 -0.19672434 -0.33437172 -0.067226306 -0.1311229
0.016905166 -0.36012927 0.016311057 -0.14412671 0.21209475 0.17991562 -0.28302103 -0.08730069
-0.20392439 0.08395992 -0.076622576 0.5344835 -0.067549884 0.33113202 -0.13563362 0.28596625
0.20828453 0.11254451 0.26883534 0.038152758 -0.15676562 0.05204017 -0.060793582 0.25846592
0.47053942 -0.11957106 0.31681788 -0.19645847 -0.13545749 -0.09725031 -0.06070309 -0.039344355
0.01278609 -0.32043758 -0.09423489 -0.00858981 -0.09596114 -0.14497314 -0.14511183 -0.051949978
-0.062736474 -0.02108608 -0.24883746 -0.07179255 -0.06320624 -0.26092845 0.08625669 0.28268138
0.112920314 -0.14214589 0.011692665 0.015749758 0.23548011 -0.07219311 0.16109672 0.25559607
0.24479073 0.028977303 -0.15695266 -0.32655314 -0.5143982 -0.228435 -0.42749333 0.37399763
-0.1362623 0.025538223 -0.056331206 0.45371905 0.20980777 0.09307655 0.0025088936 0.22057304
0.007663337 0.0040126652 -0.049770996 -0.036183257 0.14614233 -0.2605281 0.18849824 -0.07731824
0.03853906 -0.29964465 0.025462868 0.045983534 -0.120386116 -0.2625286 -0.3452701 0.030553201
0.19028795 -0.08124794 0.31726766 -0.031470507 -0.038490236 0.24641503 0.051351078 0.22800525
0.109530665 0.11861018 0.08021026 0.14579254 0.1275431 0.29854608 0.19321701 0.3022282
00000000: 68aa 6bbb 11bb 66be 74e0 8abe 4c56 443d
00000010: 7a14 833d 9360 b83e 97d3 69bb b359 28be
00000020: 7e37 e43e 7853 dbbd 2c36 cebc c96c 7b3c
00000030: 4ed5 cd3d 1a9c 953e c4c0 20be fc88 e4bd
00000040: df79 eabd 883d 87be d9cd 1ebd d697 023e
00000050: c26b 23bd 374b bf3b 773c 46bd 226d d2bc
00000060: 223c 6c3e 9c00 c9be e68b 8d3e 7afa 78bd
00000070: 0541 af3c 5e3f 093e 1352 ed3c 5eec a43e
00000080: 7126 953e 2d83 833e a5c5 c23d 6be9 543c
00000090: 4f10 43be f269 c63d 1a4b b4bd 08d9 a9bd
000000a0: 5cf7 383e 7a80 da3d 1f4b 01bd b9ad 173d
000000b0: 7100 afbe 99e7 e6bd 0ed6 0c3e 041b 3f3e
000000c0: f8d3 de3d 97a4 e83d cefc 043f 3256 683e
000000d0: b2f1 1bbe be49 593e 2265 6bbe 01d5 f2bd
000000e0: 5e58 7e3d fee7 293e 1df3 ea3e 3b73 9c3d
000000f0: 4d69 553e 701e 6bbe 21f9 22be cb76 7b3e
00000100: 7dee 72bc c98f c7bd 9a76 b23e 5c54 ab3d
00000110: 53a7 60bd 8c3e 1b3e 1092 9e3e 03bb 723e
00000120: 20b7 b3be 6f72 19be a433 f0bd 52ac 94bd
00000130: 6229 ea3c 4340 97be ee11 663d 2419 e2be
00000140: 8180 513c 11fe 94be 6c17 32be 17a5 1ebe
00000150: 6f2d 17bd a6f2 533e 63a1 cbbe b1e7 23be
00000160: dd1d 813e 107a 32be 825c 7cbe 7059 d7be
00000170: a39c ddbc 90ed 65be f017 37be 6c67 003e
00000180: e194 1ebe 5ae5 5dbe a3fc 79be 3a1f fbbd
00000190: a5a8 1cbe 86d3 3bbc fd20 303d 028f 513d
000001a0: 0c0c c43d 8a56 88bc 6d21 b1bd e6c4 eabd
000001b0: 49aa ce3d 40d8 d83d 75a0 eb3e f27a a43e
000001c0: a328 073e e4ca 913e e7bd 393e 0b40 163e
000001d0: 5fb2 d83e 20c7 1ebd a6e3 c4be 589e 653d
000001e0: 09cb 6bbe 2428 0cbe e456 0c3e fadd 53bd
000001f0: e421 cfbc fa15 05be f9a7 22be c974 20be
00000200: 4b9a d33d f2e8 a6bc 45b9 0b3f 04d0 b1bc
00000210: 76ae 9a3e 7f1b a1bc 5a82 a0bd 39e9 54bd
00000220: 52d3 9b3d 36dd 2f3d 773e 8dbe a857 943e
00000230: 9649 d9bd cbb5 8d3d a67c ec3e 4d1a cdbd
00000240: 8606 41be 6242 583e ea4c 17be 8548 5abe
00000250: 1b72 49be c532 abbe f2ad 89bd 1545 06be
00000260: b47c 8a3c dd62 b8be c49e 853c f495 13be
00000270: 5e2f 593e cd3b 383e 22e8 90be b4ca b2bd
00000280: 8ed1 50be 2ef3 ab3d 4cec 9cbd e9d3 083f
00000290: 9857 8abd 238a a93e 8ae3 0abe 2b6a 923e
000002a0: 8a48 553e bc7d e63d c9a4 893e 1146 1c3d
000002b0: 2b87 20be 1328 553d b102 79bd a555 843e
000002c0: 8bea f03e ace1 f4bd f435 a23e 692c 49be
000002d0: 5eb5 0abe 2c2b c7bd cea3 78bd 8c27 21bd
000002e0: c07c 513c 6510 a4be 39fe c0bd 46bc 0cbc
000002f0: 4687 c4bd d773 14be 3298 14be 80c9 54bd
00000300: fb7b 80bd b7bc acbc 3fcf 7ebe f907 93bd
00000310: 4672 81bd 6a98 85be 59a7 b03d 9dbb 903e
00000320: c442 e73d b18e 11be 9792 3f3c a305 813c
00000330: b321 713e fbd9 93bd 8af6 243e 7ddd 823e
00000340: 6caa 7a3e cf61 ed3c 33b8 20be f931 a7be
00000350: 9aaf 03bf ddea 69be 68e0 dabe 9e7c bf3e
00000360: 5888 0bbe 8935 d13c 8dbb 66bd dd4d e83e
00000370: d9d7 563e eb9e be3d 406c 243b e6dd 613e
00000380: bb1c fb3b ad7c 833b acdc 4bbd e534 14bd
00000390: 56a6 153e f063 85be af05 413e 0759 9ebd
000003a0: 22db 1d3d 066b 99be 8197 d03c 3b59 3c3d
000003b0: ff8c f6bd 266a 86be 3ec7 b0be b54a fa3c
000003c0: d8da 423e 5265 a6bd e870 a23e 38e7 00bd
000003d0: f0a7 1dbd 3954 7c3e 8255 523d 357a 693e
000003e0: 9d51 e03d e5e9 f23d 4745 a43d a44a 153e
000003f0: a99a 023e 08db 983e aeda 453e a8bd 9a3e

conv2.bias f4 [8]
-0.4472495 -0.8473421 -0.9955474 0.056416344 -0.35282123 -0.5913121 -0.47718582 0.4106855
00000000: e3fd e4be 69eb 58bf 32dc 7ebf d314 673d
00000010: fca4 b4be 3b60 17bf b351 f4be 5f45 d23e

fc1.weight f4 [32, 512]
-0.14843202 0.05829099 -0.06906771 -0.078927435 -0.29100764 0.10809028 0.22392899 -0.12478552
-0.08321713 -0.07560663 0.1508434 0.12437141 0.067189924 -0.23989262 -0.060660977 0.23127636
0.061363477 0.25921434 -0.1772906 -0.06866063 0.055667073 0.1484989 0.090448976 -0.07238333
-0.31455344 0.005214317 0.08106956 -0.08558756 0.07351643 0.019049227 0.0751009 -0.07111763
0.08429484 -0.37347177 0.012932172 0.19606313 -0.1499575 -0.08567007 -0.03527152 -0.20875968
0.021689655 0.10823089 0.12482932 0.15369108 -0.05783573 0.11477666 -0.0964309 -0.18197787
-0.11078101 0.27435192 0.12604578 0.08472901 0.06665021 0.04658737 -0.07145066 -0.058364935
-0.015321011 0.01564204 -0.3409246 0.01846228 0.18350288 0.044861656 -0.14369135 0.20359176
-0.07813662 -0.022964578 -0.123627156 0.17324364 -0.21749492 0.028202668 0.23661469 0.11985376
-0.13271469 -0.0741221 -0.07352748 0.10583905 -0.14510928 0.026638227 -0.06168018 0.05796976
0.0033023893 0.14922261 0.1402117 0.17016362 0.3546085 -0.00043103498 0.15384947 -0.08647461
0.1621329 0.07858573 0.15099606 -0.055907004 0.18668008 0.08512883 -0.081793085 -0.047618683
0.12971742 0.15864705 0.16346115 -0.014864654 -0.010618159 0.00039540252 -0.008400871 0.075681016
0.06781287 0.07167106 -0.07332723 0.11958201 0.03153832 0.18629043 0.23175026 0.091289476
0.13516374 0.08856195 -0.11249381 -0.041792084 -0.23232985 -0.053267416 0.19323012 0.059497382
-0.20523328 0.075091295 0.10296392 -0.1392624 0.081576124 -0.15726201 -0.13029048 0.069976136
0.10843197 -0.22330907 -0.06200331 0.14867023 0.26544845 -0.16974956 -0.24558488 -0.03478456
0.060533166 -0.07314379 -0.060877014 0.3959026 0.120035075 0.20379317 -0.2580296 -0.28949356
-0.03885622 0.12492088 0.3423996 0.11760961 0.07634438 0.40492064 0.26318845 -0.23517425
-0.29827106 -0.114260584 0.025378413 0.20058341 0.049604177 0.10498248 0.05480067 -0.22055835
0.08076495 0.058496587 -0.042558778 0.12254006 0.30664146 0.08591428 0.042085756 0.06621655
-0.2772293 -0.038952142 -0.064140595 0.28813735 0.13235664 -0.064218245 0.05521944 0.0462738
-0.045169976 0.012588316 0.22541243 0.03149224 0.11760491 0.2669472 0.17011204 -0.07582492
0.0006986204 -0.09104704 0.065325655 0.01887874 -0.086412735 0.08467116 -0.10978343 0.06068351
0.08513128 -0.15410736 -0.05503015 0.12523198 0.096816204 0.045384124 -0.061943375 0.15327051
-0.13537315 0.05592685 -0.24163382 0.008688415 0.037293028 0.106450886 -0.04390907 -0.057963125
-0.008683221 0.055648353 -0.07594947 -0.028971544 -0.04405169 0.060579438 0.044194333 -0.27206963
0.09160348 -0.07649536 -0.07173346 -0.27763817 -0.19097894 -0.14133824 0.10014726 0.13510315
0.07877342 0.2638407 -0.048875056 0.016420815 0.15669332 0.10844543 -0.17749496 -0.09477922
0.23684709 0.004462996 -0.054093104 -0.105433986 -0.00038822624 -0.17078462 0.04461753 -0.105722725
0.15496543 -0.05708972 0.14242572 0.24541417 0.11825394 0.07835588 -0.08738805 -0.17619736
0.17196059 -0.08048184 -0.025758646 0.07303868 0.073587954 0.17328982 -0.13273445 -0.37038174
00000000: 90fe 17be 88c2 6e3d 5f73 8dbd b5a4 a1bd
00000010: f4fe 94be 705e dd3d a44d 653e 8d8f ffbd
00000020: be6d aabd a6d7 9abd b176 1a3e 70b6 fe3d
00000030: df9a 893d 69a6 75be a577 78bd b6d3 6c3e
00000040: 4558 7b3d beb7 843e ab8b 35be f29d 8cbd
00000050: 2803 643d 1810 183e 503d b93d b63d 94bd
00000060: 260d a1be dcdc aa3b cc07 a63d 8848 afbd
00000070: c88f 963d 200d 9c3c 80ce 993d 1fa6 91bd
00000080: c6a2 ac3d b137 bfbe 76e1 533c c6c4 483e
00000090: 758e 19be ca73 afbd df78 10bd 19c5 55be
000000a0: 81ae b13c 28a8 dd3d 84a6 ff3d 3261 1d3e
000000b0: 29e5 6cbd 0710 eb3d 907d c5bd 6858 3abe
000000c0: 27e1 e2bd db77 8c3e 2512 013e 6786 ad3d
000000d0: e87f 883d 66d2 3e3d b954 92bd 1210 6fbd
000000e0: fa04 7bbc bc23 803c ab8d aebe 353e 973c
000000f0: 2ee8 3b3e dbc0 373d d323 13be 5c7a 503e
00000100: 1806 a0bd 3620 bcbc 3c30 fdbd c866 313e
00000110: fdb6 5ebe 4809 e73c 1f4b 723e e375 f53d
00000120: 5ce6 07be 54cd 97bd 9395 96bd 25c2 d83d
00000130: 8797 14be 6938 da3c 5ba4 7cbd b371 6d3d
00000140: e66c 583b d0cd 183e a893 0f3e 5f3f 2e3e
00000150: 3f8f b53e 89fc e1b9 b78a 1d3e 9a19 b1bd
00000160: 2b06 263e 8ef1 a03d b69e 1a3e befe 64bd
00000170: 1029 3f3e 0658 ae3d 2283 a7bd cf0b 43bd
00000180: a5d4 043e 5f74 223e 5c62 273e e18a 73bc
00000190: c9f7 2dbc 074e cf39 cfa3 09bc a6fe 9a3d
000001a0: 79e1 8a3d 47c8 923d 962c 96bd 6ae7 f43d
000001b0: 532e 013d ebc2 3e3e f14f 6d3e faf5 ba3d
000001c0: 5d68 0a3e f85f b53d 2863 e6bd 2d2e 2bbd
000001d0: e0e7 6dbe ef2e 5abd 1ede 453e 87b3 733d
000001e0: ac28 52be 77c9 993d bfde d23d cd9a 0ebe
000001f0: 6211 a73d 4b09 21be de6a 05be a64f 8f3d
00000200: 9511 de3d 22ab 64be 2ff7 7dbd 023d 183e
00000210: dce8 873e d4d2 2dbe 9a7a 7bbe 417a 0ebd
00000220: a0f1 773d 69cc 95bd 2d5a 79bd bfb3 ca3e
00000230: f3d4 f53d 28af 503e 751c 84be 8038 94be
00000240: b327 1fbd 85d6 ff3d 004f af3e 4fdd f03d
00000250: 715a 9c3d c251 cf3e a3c0 863e 85d1 70be
00000260: fcb6 98be 7401 eabd 64e6 cf3c bd65 4d3e
00000270: c02d 4b3d 0e01 d73d ab76 603d 0cda 61be
00000280: 1868 a53d 1e9a 6f3d 1d52 2ebd 48f6 fa3d
00000290: 1c00 9d3e d3f3 af3d 1d62 2c3d 8b9c 873d
000002a0: 00f1 8dbe 488c 1fbd 255c 83bd bd86 933e
000002b0: 8088 073e db84 83bd c82d 623d 9989 3d3d
000002c0: 2704 39bd 393f 4e3c 84d2 663e 02fe 003d
000002d0: d8da f03d 4ead 883e da31 2e3e 184a 9bbd
000002e0: 9f23 373a df76 babd 75c9 853d 96a7 9a3c
000002f0: 29f9 b0bd 1368 ad3d 23d6 e0bd 468f 783d
00000300: 4f59 ae3d 52ce 1dbe 4b67 61bd d03c 003e
00000310: 9347 c63d b4e4 393d 56b8 7dbd f2f2 1c3e
00000320: 429f 0abe 8d13 653d db6e 77be db59 0e3c
00000330: 93c0 183d ec02 da3d ffd9 33bd be6a 6dbd
00000340: 1244 0ebc 87ef 633d 658b 9bbd bb55 edbc
00000350: 8b6f 34bd 2522 783d 1e05 353d b64c 8bbe
00000360: 9b9a bb3d 99a9 9cbd fee8 92bd 9726 8ebe
00000370: fc8f 43be f9ba 10be 021a cd3d 7b58 0a3e
00000380: f553 a13d 2116 873e 3631 48bd f284 863c
00000390: 3774 203e a318 de3d 3dc1 35be 9c1b c2bd
000003a0: 0b88 723e 533e 923b bb90 5dbd c6ed d7bd
000003b0: d88a cbb9 2ae2 2ebe dfc0 363d 2885 d8bd
000003c0: 42af 1e3e e9d6 69bd 0cd8 113e da4d 7b3e
000003d0: 1f2f f23d 0c79 a03d 82f8 b2bd 156d 34be
000003e0: 7016 303e aad3 a4bd cc03 d3bc 4e95 953d
000003f0: 48b5 963d e372 313e 8aeb 07be ada2 bdbe

fc1.bias f4 [32]
0.71947736 0.12087152 0.83897114 -0.48110393 -0.51206917 -0.22059216 -0.21265134 0.22626513
0.44114026 -0.2734088 -0.20033945 -0.06411872 0.18203285 -0.054553848 0.09629182 0.10611371
0.64977616 0.25572914 0.011245736 -0.06826739 -0.54630417 -0.21135664 0.9422711 0.6280335
0.06819748 0.15642865 -0.1732646 0.08041026 0.3622599 -0.36435795 -0.32015273 -0.20801903
00000000: ab2f 383f 7d8b f73d d0c6 563f 4153 f6be
00000010: f716 03bf e9e2 61be 46c1 59be 0cb2 673e
00000020: 23dd e13e 3dfc 8bbe c925 4dbe ad50 83bd
00000030: d266 3a3e db73 5fbd a534 c53d 2552 d93d
00000040: bb57 263f eeee 823e 0940 383c c6cf 8bbd
00000050: 97da 0bbf e06d 58be ae38 713f cec6 203f
00000060: 1fab 8b3d d52e 203e 466c 31be 22ae a43d
00000070: 217a b93e 208d babe 0feb a3be f102 55be

fc2.weight f4 [10, 32]
0.7080152 1.4119807 -1.4630353 0.013942158 1.0874046 0.25788054 -0.48334467 -0.68638396
-0.23665783 -0.3414093 -0.1411314 -0.35405284 1.3131596 0.39682156 -0.7220276 0.5728338
-0.04812736 -0.4836683 0.071736515 1.3941824 1.0774229 0.6017379 -0.5247643 1.2235047
-0.88314617 -0.8779304 0.93149793 -0.07522048 0.61715347 -0.23428327 -1.6021484 -1.6995168
0.28069916 -0.31897655 0.55374193 -0.31163162 -0.606648 0.8915467 -0.7686516 0.4140333
1.2813532 1.6764231 -1.0889673 -1.722449 -1.3216769 -1.9631715 -1.0751405 0.21132022
-1.1681283 0.08867659 -0.9207637 0.54574984 -1.1443648 -0.365512 1.1768384 -0.7275049
0.6024792 0.79161745 -0.8956906 -1.0630535 -1.1557714 -0.9545 -1.0213424 -0.7649871
-0.1243214 -0.072612576 -1.2380512 -1.1759617 -0.7157856 -0.11262338 -0.020851417 -1.5420717
-0.48681095 0.17892459 1.3332622 1.1651387 -0.7410998 1.2256818 0.33888277 -0.71133506
0.5580084 0.9184819 -0.6179799 0.430775 0.83857125 1.0522738 -0.5983694 0.12136626
0.52509576 0.55689836 1.3342668 1.642929 -0.39664295 0.1614229 1.0209014 -0.48140118
0.5608145 0.94289017 0.63192767 -0.46938923 -0.074652925 -0.5368131 0.86624956 0.24669465
-0.522547 -0.97960556 -0.7522958 0.26470906 0.007127329 -0.30733874 -0.43670148 -0.3428035
0.26981747 0.48844913 0.8387812 -0.4320737 -0.5605784 0.79718554 0.60132545 -0.10249096
-0.69216716 -0.89605814 -0.0038032474 0.21462223 -0.116796084 1.4245453 -0.09866986 1.0644348
-0.27944043 0.023460701 0.6642763 0.6202794 -0.793579 0.51252526 0.84148616 -0.018133968
1.8240715 0.38709375 0.16852812 1.0717164 -0.2062393 1.1149275 -0.5740383 0.8934426
1.5004646 -1.0852652 1.4551876 0.32253277 0.57279855 -0.065733306 -1.3491683 -1.3879601
-1.3419615 -1.1026728 0.13824311 -0.092551745 0.74157476 -0.00079325907 1.1104492 -0.11685995
0.9592189 0.87583876 0.8026364 0.90992737 0.11459709 -1.3500361 0.68212306 -0.5620221
-0.92512226 -1.304049 -0.33406064 -0.7771659 -0.9292798 -0.3224174 -0.14067745 0.060054936
0.42183268 0.42005065 1.4040996 0.30175436 -0.9689381 0.45841864 -0.46566978 0.93385607
0.98926383 0.08370722 -0.20161588 -0.561301 0.14322723 1.2360938 0.18824674 0.49249345
-1.4568003 -0.5635279 -1.0860071 0.4053378 1.0519338 -1.0449027 0.023755103 0.83802587
-0.6096185 0.7290892 -0.5303429 0.9114474 -0.75539684 -0.030386671 0.36501426 -1.3172215
-1.7744684 1.0138518 0.5448054 0.59988374 1.0129137 1.4619519 -0.81322914 -0.8422048
-0.090406984 -0.31278533 -0.5918538 0.34019068 -2.055259 1.0197228 0.95703983 0.8311274
0.9477737 0.3729859 1.278496 0.8153222 -1.0085927 1.9596052 -1.5391593 1.07978
-0.009055153 -1.3413875 1.7628332 -0.2606863 0.2270408 0.999268 1.1929113 -1.0032227
0.7862052 -1.4307529 -0.49920714 -1.2235446 0.3331437 -1.508348 -0.8436336 0.25813884
0.22424603 0.2722333 -0.2826585 -0.33417568 0.9560401 0.92839324 0.22677578 -0.7167877
00000000: 7c40 353f c9bb b43f be44 bbbf a66d 643c
00000010: 1330 8b3f eb08 843e f478 f7be dcb6 2fbf
00000020: 6e56 72be 33cd aebe c084 10be 6a46 b5be
00000030: 9d15 a83f 322c cb3e cdd6 38bf 3ca5 123f
00000040: 3221 45bd 5fa3 f7be 98ea 923d 9274 b23f
00000050: fee8 893f 7f0b 1a3f f456 06bf cd9b 9c3f
00000060: de15 62bf 0cc0 60bf a676 6e3f 320d 9abd
00000070: c5fd 1d3f f4e7 6fbe 3313 cdbf c489 d9bf
00000080: cdb7 8f3e e550 a3be 08c2 0d3f 2e8e 9fbe
00000090: 494d 1bbf 683c 643f 5ac6 44bf 2cfc d33e
000000a0: 6203 a43f 0895 d63f 4863 8bbf 3579 dcbf
000000b0: b52c a9bf 3449 fbbf 349e 89bf 5464 583e
000000c0: 3a85 95bf 129c b53d 2bb7 6bbf 43b6 0b3f
000000d0: 8c7a 92bf 6424 bbbe a4a2 963f c33d 3abf
000000e0: 143c 1a3f 71a7 4a3f fb4b 65bf 2312 88bf
000000f0: 51f0 93bf 1d5a 74bf 59bb 82bf 32d6 43bf
00000100: 389c febd e7b5 94bd 7678 9ebf ea85 96bf
00000110: ba3d 37bf 16a7 e6bd 97d0 aabc 9b62 c5bf
00000120: 493f f9be 0238 373e 56a8 aa3f 4423 953f
00000130: b7b8 3dbf 24e3 9c3f 0b82 ad3e 0e1a 36bf
00000140: a3d9 0e3f a121 6b3f ee33 1ebf 8a8e dc3e
00000150: 9bac 563f e8b0 863f bd2e 19bf e08e f83d
00000160: ad6c 063f e490 0e3f 41c9 aa3f 7f4b d23f
00000170: c914 cbbe 0b4c 253e e6ac 823f 377a f6be
00000180: 8a91 0f3f 4061 713f 03c6 213f c953 f0be
00000190: a2e3 98bd 956c 09bf 88c2 5d3f 869d 7c3e
000001a0: a4c5 05bf 6ec7 7abf 7596 40bf f287 873e
000001b0: 5e8c e93b 815b 9dbe 5697 dfbe f183 afbe
000001c0: 8425 8a3e 0116 fa3e 5dba 563f c438 ddbe
000001d0: 1182 0fbf 5a14 4c3f 77f0 193f c8e6 d1bd
000001e0: de31 31bf 1164 65bf e73f 79bb eec5 5b3e
000001f0: c932 efbd 8057 b63f 6c13 cabd 663f 883f
00000200: d112 8fbe a830 c03c 030e 2a3f a1ca 1e3f
00000210: fe27 4bbf db34 033f a36b 573f b08d 94bc
00000220: 2d7b e93f 2731 c63e a392 2c3e 012e 893f
00000230: 6530 53be f2b5 8e3f 2df4 12bf a7b8 643f
00000240: 390f c03f f8e9 8abf 9643 ba3f 0423 a53e
00000250: eda2 123f 2f9f 86bd 8cb1 acbf ada8 b1bf
00000260: 65c5 abbf 6224 8dbf 9a8f 0d3e c58b bdbd
00000270: d8d7 3d3f b7f2 4fba 3323 8e3f 4554 efbd
00000280: 5f8f 753f f836 603f 9479 4d3f 00f1 683f
00000290: e1b1 ea3d fccd acbf 9e9f 2e3f aee0 0fbf
000002a0: d0d4 6cbf 14eb a6bf ff09 abbe 58f4 46bf
000002b0: 48e5 6dbf e513 a5be c00d 10be 2afc 753d
000002c0: 74fa d73e e110 d73e 89b9 b33f 8c7f 9a3e
000002d0: 540c 78bf d9b5 ea3e 456c eebe 3111 6f3f
000002e0: 6540 7d3f b16e ab3d 6574 4ebe 6cb1 0fbf
000002f0: 29aa 123e 5238 9e3f c1c3 403e 1a28 fc3e
00000300: 6f78 babf 5d43 10bf 4802 8bbf 7088 cf3e
00000310: c4a5 863f 5fbf 85bf 109a c23c dd88 563f
00000320: f50f 1cbf 97a5 3a3f 8dc4 07bf 9e54 693f
00000330: b061 41bf 78ed f8bc 26e3 ba3e b79a a8bf
00000340: c821 e3bf e5c5 813f 5e78 0b3f fb91 193f
00000350: 28a7 813f 3d21 bb3f c92f 50bf bc9a 57bf
00000360: 4c27 b9bd 6625 a0be bb83 17bf 792d ae3e
00000370: 5d89 03c0 4786 823f 9000 753f c4c4 543f
00000380: 4ca1 723f 02f8 be3e c2a5 a33f f5b8 503f
00000390: 9119 81bf 58d4 fa3f 2c03 c5bf 3b36 8a3f
000003a0: 105c 14bc 96b2 abbf 85a4 e13f ad78 85be
000003b0: 627d 683e 07d0 7f3f 51b1 983f 9a69 80bf
000003c0: be44 493f e922 b7bf 1498 ffbe 1c9d 9cbf
000003d0: d091 aa3e 8c11 c1bf 5ff8 57bf c62a 843e
000003e0: c0a0 653e 2a62 8b3e 9db8 90be 1319 abbe
000003f0: 0bbf 743f 2eab 6d3f e937 683e 667f 37bf

fc2.bias f4 [10]
0.93384767 0.0868152 0.30773234 0.61917645 -0.49863192 0.47658467 -1.0058697 -0.482999
-0.3102275 -0.15256043
00000000: a410 6f3f 2bcc b13d 188f 9d3e 5982 1e3f
00000010: af4c ffbe e802 f43e 57c0 80bf a54b f7be
00000020: 24d6 9ebe cd38 1cbe
