problem_2a_model.pt (torch, 20531 bytes, 10 tensors)

conv1.weight f4 [16, 3, 3, 3]
0.088355705 0.8189697 -0.09741178 -0.5033004 0.97153354 -0.37715495 -1.1763895 0.45906812
-0.4046689 -0.22684403 0.7350209 -0.009666752 -0.56917614 0.30540943 -0.8768355 -0.17061606
0.7685074 0.15400894 0.07286312 0.2702084 0.029211791 -0.46847758 0.11079012 -0.36345443
-0.022542965 0.3362088 -0.1679654 0.27917272 -0.3023216 -0.025442557 0.678137 -0.8302091
0.28884915 0.39790797 -0.45211804 -0.015539194 0.1874869 -0.71155024 0.28292432 0.6090095
-1.3003343 0.8015461 0.32799423 -0.7667254 0.7355287 0.26440609 -0.27391428 0.17678572
0.42420697 -0.920592 0.51042634 0.45758143 -0.74673235 0.29676804 0.25252953 0.08090128
0.0024269493 -0.044831827 0.050488636 0.017875232 0.13787298 -0.10395797 0.08026745 -0.0437718
0.12233809 -0.027977243 0.04156341 -0.18124479 -0.079026155 -0.16971089 -0.20451169 -0.03190424
-0.093732946 0.47835782 0.21044374 0.010574802 0.119171806 0.026416175 -0.14610076 0.37295017
-0.0058633247 -0.15181184 0.38185742 -0.20420961 0.6698915 -0.6946766 -0.21839835 -0.36941874
-0.45512792 0.6983253 0.17818359 0.5290355 -0.09720734 0.42847347 -0.41165766 -0.25505406
-0.2650597 0.10689352 0.32292962 -0.26655316 0.07699009 -0.15658848 0.6444258 -0.49852
-0.18094008 -0.33484763 -0.09889446 0.32600927 -0.2781069 0.45817873 -0.21333078 -0.24618547
-0.6859097 0.78026915 0.4271346 -0.085568875 -0.4089804 -0.045191914 0.37234384 0.009777418
0.27343982 -0.57739526 0.4803612 0.29868203 -0.06702073 0.05545414 -0.5026584 0.38411003
0.026640724 -0.18504411 -0.6159939 0.46312666 0.48203564 -0.14448436 -0.48250186 0.19432025
0.4816523 0.2165554 -0.6826879 -0.74832726 -0.27070752 0.6283853 0.43643776 0.26360247
-0.17405508 0.64775014 -0.12529014 -0.57195216 -0.9019999 -0.7891041 1.088152 0.29207683
-0.29689053 0.14536299 0.7317299 -0.1281708 -0.70207214 -0.29867658 0.0931826 0.22200422
-0.07513592 0.4754781 -0.18075328 0.36382747 -0.08030384 0.1355727 -0.14819358 0.37611884
0.22357261 0.46312383 -0.24950412 -0.3678848 0.009622998 0.28086698 -0.60260624 -0.4603724
0.21784422 -0.44941798 0.047563944 -0.14673506 -0.38970572 0.6808018 0.12905703 -0.27463314
0.0815272 0.50333333 -0.5320401 0.38419032 -0.105058 0.6147825 0.41463634 0.50270075
0.06733088 0.115339175 -0.04816116 -0.715585 -0.48931187 -0.31586483 0.21958962 0.38349447
-0.07608931 -0.11971421 -0.19867423 -0.22892874 -0.21476167 -0.41482732 0.26295575 -0.05419615
0.113047585 -1.9580213e-07 -0.039539646 0.24485081 0.00501265 -0.05445516 -0.1844874 0.11670995
0.098788776 0.005686315 0.20245926 -0.26215369 -0.16569105 -0.3512463 0.43863168 -0.17719628
0.20043094 0.24365285 0.07231634 0.2629024 -0.31558916 -0.3535653 -0.078323856 0.36960468
-0.0075868876 0.5852978 0.15705046 -0.41482905 0.11695455 0.088904575 -0.0017630303 -0.024958916
0.29570475 -0.38155043 0.20306745 0.15348402 -0.47315294 -0.06259561 -0.08552181 -0.12084124
-0.6849859 -0.14942293 0.015988804 0.49065432 -0.10120682 0.0065989792 -0.09488511 0.019608995
00000000: d6f3 b43d 00a8 513f d47f c7bd 4cd8 00bf
00000010: 6cb6 783f 741a c1be ee93 96bf fa0a eb3e
00000020: c330 cfbe cd49 68be 542a 3c3f 4c61 1ebc
00000030: 87b5 11bf a05e 9c3e 4b78 60bf fab5 2ebe
00000040: e7bc 443f 85b4 1d3e 4239 953d c158 8a3e
00000050: 914d ef3c 4bdc efbe eee5 e23d b316 babe
00000060: 06ac b8bc 8f23 ac3e 1fff 2bbe baef 8e3e
00000070: e6c9 9abe e96c d0bc 639a 2d3f 9588 54bf
00000080: 09e4 933e 98ba cb3e 047c e7be 1b98 7ebc
00000090: 91fc 3f3e 2828 36bf 75db 903e 0ce8 1b3f
000000a0: 5b71 a6bf 2032 4d3f dcee a73e 1e48 44bf
000000b0: 9c4b 3c3f 3c60 873e 7e3e 8cbe 5107 353e
000000c0: a831 d93e ebab 6bbf 4dab 023f 1d48 ea3e
000000d0: da29 3fbf fbf1 973e 8d4b 813e 92af a53d
000000e0: 740d 1f3b 94a1 37bd 2ccd 4e3d 146f 923c
000000f0: 932e 0d3e ebe7 d4bd 4363 a43d 0f4a 33bd
00000100: 648c fa3d 8830 e5bc 653e 2a3d 3c98 39be
00000110: 77d8 a1bd b1c8 2dbe 836b 51be 05ae 02bd
00000120: 0ff7 bfbd 51eb f43e 907e 573e ef41 2d3c
00000130: 5910 f43d bc66 d83c 709b 15be 53f3 be3e
00000140: 2221 c0bb 9074 1bbe d182 c33e 531c 51be
00000150: 027e 2b3f 53d6 31bf d1a3 5fbe 7424 bdbe
00000160: 8706 e9be 72c5 323f c275 363e df6e 073f
00000170: a414 c7bd e060 db3e cbc4 d2be 7296 82be
00000180: e8b5 87be fdea da3d 0857 a53e a879 88be
00000190: fbac 9d3d bb58 20be 17f9 243f 033e ffbe
000001a0: 5b48 39be 2671 abbe 2e89 cabd b0ea a63e
000001b0: 0764 8ebe 6796 ea3e 6273 5abe 0b18 7cbe
000001c0: c797 2fbf b8bf 473f 63b1 da3e bc3e afbd
000001d0: e165 d1be 281b 39bd daa3 be3e 7731 203c
000001e0: 4e00 8c3e 2dd0 13bf e7f1 f53e daec 983e
000001f0: 2a42 89bd e123 633d 39ae 00bf 12aa c43e
00000200: a63d da3c 347c 3dbe c7b1 1dbf f01e ed3e
00000210: 60cd f63e b5f3 13be 7c0a f7be e3fb 463e
00000220: 219b f63e b3c0 5d3e a2c4 2ebf 6092 3fbf
00000230: 2d9a 8abe dcdd 203f c574 df3e e7f6 863e
00000240: 7f3b 32be f4d2 253f 0f4c 00be 756b 12bf
00000250: 77e9 66bf ba02 4abf 9148 8b3f 188b 953e
00000260: 0902 98be 09da 143e a752 3b3f 353f 03be
00000270: 00bb 33bf 23ec 98be 85d6 be3d 1355 633e
00000280: dce0 99bd de71 f33e 6317 39be 9847 ba3e
00000290: 5776 a4bd 92d3 0a3e 0fc0 17be a692 c03e
000002a0: 38f0 643e 911e ed3e 027e 7fbe 665b bcbe
000002b0: c7a9 1d3c cccd 8f3e 6744 1abf eeb5 ebbe
000002c0: 8e12 5f3e 1d1a e6be 69d2 423d b741 16be
000002d0: 8287 c7be 0749 2e3f 8727 043e b79c 8cbe
000002e0: bcf7 a63d 74da 003f c833 08bf 98b4 c43e
000002f0: a628 d7bd 6362 1d3f 374b d43e ffb0 003f
00000300: c6e4 893d f236 ec3d a344 45bd 9430 37bf
00000310: 1687 fabe 09b9 a1be 1adc 603e 6359 c43e
00000320: b6d4 9bbd b92c f5bd 4271 4bbe 4c6c 6abe
00000330: 7cea 5bbe 3f64 d4be 23a2 863e c8fc 5dbd
00000340: 7e85 e73d ae3d 52b4 53f4 21bd 2cba 7a3e
00000350: 2841 a43b 600c 5fbd 44ea 3cbe a005 ef3d
00000360: c551 ca3d 4454 ba3b 7b51 4f3e 0239 86be
00000370: eaaa 29be 8ed6 b3be 5594 e03e f172 35be
00000380: c53d 4d3e 2280 793e 971a 943d 259b 863e
00000390: e794 a1be 8306 b5be 4268 a0bd d33c bd3e
000003a0: 6d9b f8bb 14d6 153f d6d1 203e 7964 d4be
000003b0: de85 ef3d 9a13 b63d 7b15 e7ba a476 ccbc
000003c0: 9d66 973e 945a c3be eaf0 4f3e ea2a 1d3e
000003d0: 1a41 f2be 2132 80bd 0f26 afbd 9d7b f7bd
000003e0: 3c5b 2fbf 5302 19be f4fa 823c 0b37 fb3e
000003f0: 8545 cfbd 403c d83b 2053 c2bd 0ba3 a03c

conv1.bias f4 [16]
-0.8940261 -0.7741698 -0.20413876 -1.1218168 -0.6734902 -0.7746696 -0.4394706 -1.2875918
0.11162945 -0.12038454 0.19570564 -0.6242535 0.17438082 -0.044578154 -0.42321452 -0.53552437
00000000: e5de 64bf fe2f 46bf c009 51be b197 8fbf
00000010: db69 2cbf bf50 46bf 4a02 e1be cfcf a4bf
00000020: fb9d e43d 2b8c f6bd 0f67 483e 14cf 1fbf
00000030: e390 323e 9597 36bd 93af d8be 2018 09bf

conv2.weight f4 [8, 16, 3, 3]
-0.054676723 0.098896764 -0.22289522 -0.117773354 -0.20798941 0.18210636 -0.07906841 0.07541364
-0.19900514 -0.008689228 -0.08416144 -0.14680503 -0.28528923 -0.048446808 -0.12670255 0.20049232
0.06313694 -0.18365869 0.19330917 -0.113775514 -0.028523108 -0.025842497 -0.45812884 -0.04906877
0.20504461 0.37142777 0.008958109 0.4605525 0.029247966 0.15595524 -0.036635946 0.060275346
-0.07631222 -0.08668157 -0.0068218266 0.13259733 0.10036392 0.007548378 0.3309252 -0.24854428
0.05228952 0.5806295 -0.20042229 -0.20504297 0.49701443 -0.1896004 -0.016156724 0.10035517
-0.12609027 -0.099403605 0.015898658 0.12681483 -0.34795412 -0.1310549 0.14395699 -0.014183946
-0.2633876 0.0113037415 0.081481285 -0.05553497 -0.4520666 -0.052374065 0.030140022 0.04831136
0.08151868 0.16010852 -0.087922715 0.16495574 0.23863089 0.15967993 -0.17798631 -0.19493555
-0.029415006 0.1778919 -0.046306457 -0.036571905 -0.22631328 -0.052285615 0.1280471 -0.055909935
-0.015812937 0.12888889 0.26785123 -0.17330244 0.19282742 -0.04480479 0.021304071 0.10279255
-0.23827113 -0.11947236 0.35683966 0.3056085 -0.22615632 0.07346166 -0.38264453 0.270566
-0.050184276 0.081892595 -0.2441153 0.18697111 -0.103409424 -0.0805835 -0.048480008 0.05535336
-0.08071091 0.092285775 0.038406596 -0.042621683 0.13226314 -0.27302158 0.2922246 0.09077612
-0.24887694 -0.003233649 0.19279169 -0.13302505 0.34934884 0.015011876 0.19492514 -0.056105547
0.005504743 0.1179314 -0.10461176 -0.29757264 -0.0685806 -0.3790935 0.14533769 -0.06581553
-0.010206753 -0.10949487 -0.08337462 0.033817396 -0.1826017 0.33720937 0.08657972 0.040352706
-0.05226116 -0.027633945 -0.031868216 -0.037952956 -0.16034849 -0.004132347 -0.006324819 -0.29454145
-0.11970439 0.047491226 0.20565271 0.06323155 -0.20393813 0.079241514 -0.17342013 -0.16961496
-0.026971163 0.10209431 0.074769236 -0.12675229 -0.03150828 0.2798233 -0.10643944 -0.020995203
0.14367016 0.15941286 0.021416688 -0.13117224 -0.11996904 0.38427132 -0.25054497 -0.03823198
0.23369014 0.5603481 -0.1602219 -0.23957416 -0.2205661 -0.02948608 0.07534903 -0.13757001
-0.12750293 0.047803536 -0.2831652 -0.34654254 0.48881233 -0.07862059 -0.11602208 0.022871103
0.5079119 0.08136348 0.4778368 0.1815027 0.32695964 -0.011415419 -0.17553245 0.044277135
-0.1752501 0.2997065 -0.028451972 -0.12887523 0.0027864818 0.21118784 0.08659266 0.24196921
-0.22964208 -0.22314599 0.011554411 0.41268393 -4.685781e-05 0.16692416 -0.080671445 -0.08296046
0.38472775 -0.20941119 -0.17156003 0.113127425 0.28909674 0.01803808 -0.35268337 0.18559691
0.010028312 -0.09384305 0.013390756 -0.40941277 -0.26737708 0.0361994 0.2779867 -0.52245
-0.00987348 0.44487256 -0.27356958 -0.22718444 -0.026765024 0.35128534 0.029809223 -0.39607748
-0.020630153 -0.06165914 0.019261185 -0.13769962 0.06544785 -0.05283428 0.13724771 -0.116059266
-0.101217814 0.091721475 0.13298851 -0.071927324 -0.15554902 -0.14188573 -0.039511994 0.0043708016
-0.17488196 0.10122306 -0.015239401 -0.2366391 0.23095578 0.017372701 -0.4084059 0.06815526
00000000: b3f4 5fbd 638a ca3d a53e 64be 2833 f1bd
00000010: 2dfb 54be 177a 3a3e 9eee a1bd 7772 9a3d
00000020: 01c8 4bbe 445d 0ebc d55c acbd 0f54 16be
00000030: 6e11 92be 2970 46bd 50be 01be dc4d 4d3e
00000040: f14d 813d 0611 3cbe d7f2 453e 2303 e9bd
00000050: 4ba9 e9bc a5b3 d3bc dd8f eabe 56fc 48bd
00000060: 37f7 513e c82b be3e 08c5 123c 8acd eb3e
00000070: 6e99 ef3c bbb2 1f3e 930f 16bd 48e3 763d
00000080: 9549 9cbd 1b86 b1bd a189 dfbb 98c7 073e
00000090: 998b cd3d 6258 f73b 076f a93e 6482 7ebe
000000a0: 892d 563d 23a4 143f 803b 4dbe c9f6 51be
000000b0: ad78 fe3e 9b26 42be 1b5b 84bc 0387 cd3d
000000c0: cf1d 01be 1e94 cbbd e73d 823c bfdb 013e
000000d0: 0b27 b2be 4133 06be 7669 133e c863 68bc
000000e0: bdda 86be 5433 393c a9df a63d a378 63bd
000000f0: 4675 e7be 3086 56bd 35e8 f63c 22e2 453d
00000100: 44f3 a63d 7df3 233e d310 b4bd 28ea 283e
00000110: a85b 743e 2383 233e 0b42 36be 2f9d 47be
00000120: bdf7 f0bc 4b29 363e d7ab 3dbd 6ccc 15bd
00000130: abbe 67be 7129 56bd c71e 033e d101 65bd
00000140: 228a 81bc 73fb 033e cc23 893e 3276 31be
00000150: 8d74 453e 3a85 37bd e085 ae3c e784 d23d
00000160: 59fd 73be edad f4bd b0b3 b63e b878 9c3e
00000170: 8695 67be 1173 963d fce9 c3be a087 8a3e
00000180: 078e 4dbd 4eb7 a73d 5cf9 79be 5b75 3f3e
00000190: 52c8 d3bd f608 a5bd f992 46bd 34ba 623d
000001a0: c34b a5bd 5300 bd3d 3c50 1d3d 1394 2ebd
000001b0: fd6f 073e 7cc9 8bbe 769e 953e d5e8 b93d
000001c0: 99d9 7ebe a1eb 53bb 2f6b 453e b837 08be
000001d0: dadd b23e 5ff4 753c 759a 473e eece 65bd
000001e0: 2261 b43b 0586 f13d b13e d6bd 715b 98be
000001f0: fc73 8cbd 8b18 c2be 67d3 143e 4bca 86bd
00000200: 3a3a 27bc d93e e0bd 50c0 aabd 1c84 0a3d
00000210: f1fb 3abe b5a6 ac3e b550 b13d e148 253d
00000220: cc0f 56bd 9560 e2bc 3f88 02bd 8f74 1bbd
00000230: 6532 24be a468 87bb 6d40 cfbb 23ce 96be
00000240: 9327 f5bd 2986 423d a096 523e 8b7f 813d
00000250: 28d5 50be 6049 a23d 0c95 31be 8baf 2dbe
00000260: a1f2 dcbc d216 d13d 9d20 993d 5acb 01be
00000270: d40e 01bd 0045 8f3e ecfc d9bd 22fe abbc
00000280: 451e 133e 203d 233e 0d72 af3c 0452 06be
00000290: 54b2 f5bd 36bf c43e 6e47 80be 2399 1cbd
000002a0: 784c 6f3e f972 0f3f 3611 24be ee52 75be
000002b0: 14dc 61be cb8c f1bc 9850 9a3d 27df 0cbe
000002c0: 2190 02be a4cd 433d 07fb 90be 066e b1be
000002d0: 9c45 fa3e d503 a1bd fc9c edbd 2e5c bb3c
000002e0: 8406 023f e5a1 a63d 06a7 f43e d8db 393e
000002f0: 4167 a73e bd07 3bbc c7be 33be f15b 353d
00000300: c374 33be 2173 993e 1c14 e9bc def7 03be
00000310: 689d 363b a041 583e 7e57 b13d c7c6 773e
00000320: 4b27 6bbe 6280 64be b64e 3d3c 4f4b d33e
00000330: 3189 44b8 2bee 2a3e 1237 a5bd 2ce7 a9bd
00000340: 09fb c43e e36f 56be 6fad 2fbe 5aaf e73d
00000350: 7d04 943e 98c4 933c ea92 b4be 1e0d 3e3e
00000360: ca4d 243c c930 c0bd e764 5b3c 8d9e d1be
00000370: a6e5 88be d245 143d 4654 8e3e 48bf 05bf
00000380: 60c4 21bc 56c6 e33e 5011 8cbe 0aa3 68be
00000390: 5342 dbbc acdb b33e 7932 f43c abca cabe
000003a0: 9100 a9bc 4b8e 7cbd a2c9 9d3c 2101 0dbe
000003b0: 8609 863d c268 58bd aa8a 0c3e 7bb0 edbd
000003c0: 494b cfbd 78d8 bb3d 242e 083e a24e 93bd
000003d0: 3e48 1fbe 7e4a 11be 54d7 21bd f138 8f3b
000003e0: 4214 33be 094e cf3d aeae 79bc 8551 72be
000003f0: ac7f 6c3e 3251 8e3c 941a d1be fc94 8b3d

conv2.bias f4 [8]
0.0065979334 -1.1778259 0.06803779 -0.2892564 -0.48421264 -1.1641034 -0.26211813 -1.5145264
00000000: 7a33 d83b 00c3 96bf 6657 8b3d 6a19 94be
00000010: b8ea f7be 5701 95bf 5934 86be 00dc c1bf

conv3.weight f4 [4, 8, 3, 3]
-0.082306005 -0.09545157 0.05316099 -0.08313289 -0.03408098 0.19772139 0.19507402 -0.02747461
-0.12923984 0.0823386 0.027005326 -0.043567363 0.033506397 0.06607582 -0.116811804 -0.06043788
-0.11948003 -0.0050386763 -0.045780573 0.0417587 -0.034077585 0.14731342 0.16301623 -0.0038970828
-0.018298661 0.15824108 -0.054517567 -0.08693186 0.07256826 0.08822717 -0.097262785 0.08374515
0.16969791 0.045304954 -0.082624026 -0.02593974 -0.2039144 -0.025563508 0.0961374 -0.42528746
-0.09910146 -0.11593935 -0.2600641 -0.18740834 -0.12747006 0.055785142 0.051211495 0.028562786
0.11077946 0.061559137 0.079773374 0.0985829 0.14273793 0.17624123 -0.09599512 -0.19469905
0.15152094 -0.10066528 0.052813463 0.06466422 0.1663768 -0.01850833 0.12182518 -0.0067549166
0.037849028 -0.030538198 -0.20678553 -0.26175 -0.20528917 -0.11968944 -0.34456548 -0.16474661
-0.09621115 0.03418089 0.0732527 -0.0032915447 -0.039465852 -0.08523674 -0.04846857 -0.15419868
-0.15608001 0.027020555 0.13107136 -0.06007947 0.19420037 -0.0039899424 -0.10451529 0.030938111
-0.06890828 -0.12772058 0.10637628 0.018220326 0.012024048 -0.072770715 -0.033311315 0.00070311356
-0.26128235 -0.036003735 -0.012009769 0.16352202 -0.087793805 -0.03871646 0.2093937 -0.14409229
-0.014274398 0.15201989 -0.06803271 -0.0947435 0.24737567 0.12163249 -0.06548184 0.3022968
0.04344484 0.30735415 0.1706684 0.19346954 0.12995096 0.07150963 0.12795563 0.13733639
0.11729675 0.15272638 0.09690622 0.11524302 0.1956298 -0.027715104 0.17877166 -0.0065106014
0.15771446 0.19608824 -0.0023721717 0.15070282 0.042167462 0.12433217 0.1679136 0.22024925
0.07957765 -0.14628524 0.06579674 -0.11491784 0.0621924 0.08951764 0.15232317 0.08326372
0.09919355 0.030524334 0.029828994 0.15552823 0.051522497 0.039172918 0.0815297 0.034764774
0.197945 0.17601101 0.106229685 0.06758891 0.011842858 0.18926387 0.28729045 0.05317065
0.1380849 0.19445334 0.0789743 0.032864805 -0.073677376 0.12939128 -0.0285765 -0.07096873
0.23020628 0.042423945 -0.0008899957 0.18627296 -0.03807159 0.01869249 0.27700377 0.1923911
-0.017867623 0.42581087 0.16676489 -0.0039689853 -0.025157863 -0.041778572 -0.0046043694 -0.0064965948
0.2044778 -0.018563615 0.2571991 -0.0676484 0.041087072 0.07271171 -0.11432907 -0.052348934
-0.13635094 0.045060616 -0.026121465 0.063094236 0.11102348 0.13635439 -0.017511684 0.22857217
-0.008026079 0.11306083 0.18655454 -0.12741587 0.17980026 -0.24829106 0.030088222 0.03140423
0.13504784 0.10489553 -0.024336832 0.16298977 0.17436644 0.16550225 0.05353392 0.05424973
0.034526393 -0.09687409 -0.010117038 -0.15988655 -0.06486733 -0.21282734 -0.2506261 -0.18375662
-0.015972998 0.047308095 -0.0019325169 -0.049181063 0.11473563 0.12795784 -0.11469474 0.11213319
0.12418549 0.03600313 -0.18209308 -0.14529097 -0.045108028 -0.091247186 -0.28785807 0.06441302
-0.33427173 -0.18357003 -0.14920112 -0.039260376 0.10082736 0.012659105 0.018399278 0.24494153
0.16504207 0.10287578 0.015745109 0.313151 -0.19143416 0.040638622 -0.28862002 0.1397268
00000000: 0d90 a8bd 1d7c c3bd 57bf 593d 9441 aabd
00000010: 7f98 0bbd 7a77 4a3e 7cc1 473e 6f12 e1bc
00000020: 7357 04be 24a1 a83d 463a dd3c b173 32bd
00000030: 013e 093d c252 873d 073b efbd b68d 77bd
00000040: f2b1 f4bd 7b1b a5bb 6984 3bbd 2c0b 2b3d
00000050: f094 0bbd 54d9 163e baed 263e 3366 7fbb
00000060: 13e7 95bc f309 223e d04d 5fbd 5509 b2bd
00000070: ab9e 943d 72b0 b43d b631 c7bd 9482 ab3d
00000080: 4ac5 2d3e b091 393d c936 a9bd 947f d4bc
00000090: f0ce 50be 906a d1bc afe3 c43d 47bf d9be
000000a0: b5f5 cabd 9c71 edbd 1f27 85be f9e7 3fbe
000000b0: 8387 02be f67e 643d 25c3 513d 81fc e93c
000000c0: 57e0 e23d 6f25 7c3d 3960 a33d d5e5 c93d
000000d0: e429 123e 9578 343e 1799 c4bd 305f 47be
000000e0: 4e28 1b3e 9929 cebd ee52 583d ad6e 843d
000000f0: ae5e 2a3e c89e 97bc 7b7f f93d 5958 ddbb
00000100: 9507 1b3d 3e2b fabc 96bf 53be 1904 86be
00000110: 5337 52be bd1f f5bd e36a b0be 56b3 28be
00000120: 5a0a c5bd 4301 0c3d 8305 963d f5b6 57bb
00000130: f2a6 21bd 9a90 aebd fb86 46bd 42e6 1dbe
00000140: 70d3 1fbe 365a dd3c 9237 063e e415 76bd
00000150: 76dc 463e 10be 82bb 1d0c d6bd ec71 fd3c
00000160: c91f 8dbd 2fc9 02be cfdb d93d cb42 953c
00000170: 8300 453c d008 95bd 7271 08bd 2751 383a
00000180: cdc6 85be a778 13bd 9fc4 44bc 5172 273e
00000190: 3dcd b3bd 2795 1ebd 4d6b 563e ee8c 13be
000001a0: 2adf 69bc 1aab 1b3e bc54 8bbd e108 c2bd
000001b0: 0c50 7d3e 741a f93d 581b 86bd a5c6 9a3e
000001c0: 37f3 313d 865d 9d3e b2c3 2e3e e11c 463e
000001d0: dd11 053e a473 923d cd06 033e e9a1 0c3e
000001e0: 4739 f03d 4e64 1c3e c576 c63d 8804 ec3d
000001f0: 2e53 483e c90a e3bc eb0f 373e e256 d5bb
00000200: e67f 213e 5bcb 483e 7076 1bbb d751 1a3e
00000210: cab7 2c3d dda1 fe3d 8bf1 2b3e 0589 613e
00000220: 9bf9 a23d cccb 15be 71c0 863d 0b5a ebbd
00000230: 75bd 7e3d 0655 b73d 9bfa 1b3e 2b86 aa3d
00000240: fd25 cb3d 2b0e fa3c ef5b f43c cb42 1f3e
00000250: 4109 533d c873 203d 0bf9 a63d 8265 0e3d
00000260: 18b2 4a3e 3b3c 343e f38e d93d 0e6c 8a3d
00000270: 8c08 423c 63ce 413e bc17 933e 78c9 593d
00000280: 2166 0d3e c71e 473e 47bd a13d 3f9d 063d
00000290: 2ae4 96bd 267f 043e 4419 eabc 0e58 91bd
000002a0: 32bb 6b3e bbc4 2d3d 9a4e 69ba 57be 3e3e
000002b0: f5f0 1bbd fe20 993c 70d3 8d3e 2c02 453e
000002c0: 1f5f 92bc e203 da3e 6ac4 2a3e 430e 82bb
000002d0: dd17 cebc 0220 2bbd 40e0 96bb 63e1 d4bb
000002e0: a162 513e b912 98bc 9aaf 833e 3f8b 8abd
000002f0: eb4a 283d e1e9 943d 5c25 eabd d66b 56bd
00000300: 959f 0bbe 7b91 383d affc d5bc 8d37 813d
00000310: 4760 e33d 7ca0 0b3e aa74 8fbc d30e 6a3e
00000320: d17f 03bc 708c e73d 2708 3f3e 4e79 02be
00000330: 8f1d 383e 0340 7ebe 937b f63c b9a1 003d
00000340: fb49 0a3e 78d3 d63d 095e c7bc cae6 263e
00000350: 1e8d 323e 6c79 293e 6246 5b3d f734 5e3d
00000360: 8c6b 0d3d ec65 c6bd efc1 25bc 4db9 23be
00000370: 2ad9 84bd 69ef 59be 1052 80be b22a 3cbe
00000380: ced9 82bc 22c6 413d 824c fdba 1572 49bd
00000390: 84fa ea3d 6107 033e 13e5 eabd 16a6 e53d
000003a0: f654 fe3d 0578 133d 9c76 3abe 28c7 14be
000003b0: 32c3 38bd cedf babd 2262 93be f9ea 833d
000003c0: aa25 abbe c8f9 3bbe 2ec8 18be 7dcf 20bd
000003d0: 937e ce3d 2268 4f3c 15ba 963c f4d1 7a3e
000003e0: ca00 293e 89b0 d23d e3fb 803c 5455 a03e
000003f0: 5107 44be af74 263d 01c6 93be 8b14 0f3e

conv3.bias f4 [4]
0.22172831 -0.53045917 -0.19716915 -0.08516916
00000000: bf0c 633e 2ccc 07bf b6e6 49be 2b6d aebd

fc1.weight f4 [32, 64]
0.11725339 -0.1227041 -0.03163957 0.22000556 0.17490768 0.21077964 0.043198626 -0.2391855
0.33059755 0.48872375 0.4950799 -0.0029476886 -0.24034427 -0.16842017 -0.39231652 -0.6344304
0.20477207 0.2944066 -0.023365293 0.14029075 0.1412622 0.2868002 -0.06348642 0.001393177
0.14601739 0.15866317 0.56058216 0.1681313 -0.082720995 -0.27797288 -0.16381536 -0.27526638
-0.082121864 -0.29027233 -0.37773928 0.037473902 0.057489976 -0.22429265 -0.17789376 0.47402588
-0.3924493 -0.028336069 -0.11646335 -0.14237297 -0.13796456 -0.23736008 -0.11344128 -0.08139089
0.1284627 -0.14253047 0.0820298 0.11655039 -0.055110108 -0.11616536 -0.28236634 -0.2143433
-0.014969551 0.27017868 0.14071903 -0.10735005 -0.2606629 0.25267988 0.051107198 -0.21469377
-0.28172353 0.21067595 0.053615794 0.029610684 0.20940813 -0.22797175 -0.1392844 -0.043229096
-0.14043632 0.055532284 0.2602276 0.12898077 0.0067499923 -0.19067565 0.09300408 0.2684075
-0.008459981 0.11524254 -0.16894531 -0.3986023 -0.28674242 0.6737011 -0.09865138 0.08736122
-0.09416857 -0.14797455 -0.5177406 -0.1958742 0.14190362 -0.16124271 -0.22938816 0.029579835
-0.015916359 0.4289521 -0.057505336 -0.08680049 0.18826365 0.34788013 -0.033190142 -0.055009816
0.022943988 0.23638982 0.019512668 -0.24582848 0.074681304 0.1092697 -0.047363225 0.019778205
-0.22343464 -0.15945587 -0.04154072 -0.39926437 0.44898435 0.25072372 0.05629884 0.23470837
0.1731546 0.5237342 -0.10605799 -0.052428592 0.09485347 0.11614776 -0.11365565 0.03048178
0.2713428 0.04158935 -0.011321598 0.010899854 -0.07761445 -0.16985467 -0.23742448 0.06542066
-0.021863995 -0.0023195741 0.3288925 0.122938976 -0.06741338 -0.0443511 -0.07577844 -0.10039323
-0.2785311 -0.075884484 0.0042954814 -0.05850874 0.11064414 -0.119121455 0.72743946 0.5863648
-0.09650876 -0.27099723 -0.2470126 0.24533732 -0.3153779 -0.18765153 -0.022664044 0.036162373
-0.57607836 0.02365445 0.42614847 -0.03000455 -0.43146804 -0.07240872 0.50630236 -0.08277667
-0.2570458 0.17712459 -0.05197309 -0.0010482474 -0.19646804 0.30130354 0.2580803 -0.13283144
-0.30117324 0.048510116 -0.020901814 0.27013043 0.11130746 -0.21029079 0.016089136 0.1623125
0.09202694 0.068558365 0.26737225 0.0026828663 -0.12192446 0.02468715 0.06563082 -0.02729147
0.13468714 0.16653551 0.2926169 -0.13063316 0.23478054 0.6712936 0.3929991 -0.21158355
-0.06615068 0.3125151 -0.33822235 -0.32222858 -0.32316294 -0.02411434 -0.06384815 -0.060880225
-0.008337351 -0.07962209 0.037380263 0.019161591 -0.091164164 0.35276952 0.39512756 0.21890083
0.055736404 0.22603634 0.737939 -0.042727362 0.086886495 0.014979453 0.3258589 -0.23783575
-0.20498718 -0.040846866 0.05045786 0.021581713 -0.18493094 -0.12488112 -0.023653526 -0.050118446
-0.30604088 -0.20270386 -0.31390512 0.117087476 0.033925623 0.20624447 0.0028913103 -0.10362521
0.12751187 -0.12966152 0.20727077 0.32936582 0.13665935 -0.019242883 -0.2607824 0.3186172
0.039846465 -0.23136084 -0.027796013 0.037574355 -0.23734921 -0.34022695 -0.034070432 -0.073082365
00000000: 8c22 f03d 4a4c fbbd 7e98 01bd 2349 613e
00000010: 001b 333e 9ed6 573e 0bf1 303d 0bed 74be
00000020: 1544 a93e 003a fa3e 1d7b fd3e 022e 41bb
00000030: cf1c 76be 5676 2cbe b6dd c8be 086a 22bf
00000040: c5af 513e 76bc 963e 9268 bfbc 61a8 0f3e
00000050: 0aa7 103e 7ad7 923e 2b05 82bd 439b b63a
00000060: 9585 153e 9978 223e 5082 0f3f 9d2a 2c3e
00000070: a069 a9bd 7652 8ebe 37bf 27be b7ef 8cbe
00000080: 822f a8bd 939e 94be 0b67 c1be 3c7e 193d
00000090: 9c7a 6b3d f9ac 65be c829 36be 85b3 f23e
000000a0: 1def c8be 0b21 e8bc 5684 eebd 38ca 11be
000000b0: 9546 0dbe 850e 73be e753 e8bd 44b0 a6bd
000000c0: ba8b 033e 82f3 11be 3dff a73d f9b1 ee3d
000000d0: 23bb 61bd 1be8 edbd 5292 90be cf7c 5bbe
000000e0: d942 75bc dc54 8a3e a618 103e 58da dbbd
000000f0: 9c75 85be 425f 813e c855 513d afd8 5bbe
00000100: 113e 90be 70bb 573e 3c9c 5b3d 1b92 f23c
00000110: 166f 563e 6d71 69be 92a0 0ebe fe10 31bd
00000120: 8ace 0fbe d275 633d 8d3c 853e 8913 043e
00000130: 0a2f dd3b 7a40 43be ec78 be3d b56c 893e
00000140: bb9b 0abc 4804 ec3d 0000 2dbe 9a15 ccbe
00000150: e7cf 92be ad77 2c3f bc09 cabd 70ea b23d
00000160: 74db c0bd a486 17be a68a 04bf 3f93 48be
00000170: 2f4f 113e cf1c 25be bbe4 6abe 6951 f23c
00000180: 0663 82bc 9c9f db3e b78a 6bbd 75c4 b1bd
00000190: 30c8 403e 581d b23e 63f2 07bd f951 61bd
000001a0: 08f5 bb3c 2c10 723e 08d9 9f3c 76ba 7bbe
000001b0: 83f2 983d cbc8 df3d f1ff 41bd e705 a23c
000001c0: 0dcc 64be 6648 23be 9a26 2abd 616c ccbe
000001d0: 47e1 e53e dc5e 803e 9d99 663d 6457 703e
000001e0: 714f 313e 7213 063f ee34 d9bd 5dbf 56bd
000001f0: 8942 c23d e0de ed3d 4bc4 e8bd edb4 f93c
00000200: 72ed 8a3e 9859 2a3d 397e 39bc 4d95 323c
00000210: 53f4 9ebd 62ee 2dbe 671f 73be 44fb 853d
00000220: 1f1c b3bc ff03 18bb 9964 a83e 6ec7 fb3d
00000230: 0710 8abd 80a9 35bd ba31 9bbd f79a cdbd
00000240: a19b 8ebe 5369 9bbd 1cc1 8c3b dca6 6fbd
00000250: 6599 e23d f3f5 f3bd 7939 3a3f 011c 163f
00000260: 62a6 c5bd 26c0 8abe dff0 7cbe b539 7b3e
00000270: 3679 a1be b927 40be f2a9 b9bc ff1e 143d
00000280: df79 13bf fac6 c13c 2230 da3e 1acc f5bc
00000290: 61e9 dcbe 064b 94bd 089d 013f d186 a9bd
000002a0: 829b 83be 2660 353e bce1 54bd 5965 89ba
000002b0: eb2e 49be 7544 9a3e 1a23 843e f704 08be
000002c0: 6133 9abe 8bb2 463d 483a abbc 894e 8a3e
000002d0: 2af5 e33d 7856 57be 5dcd 833c 3f35 263e
000002e0: 9f78 bc3d 5468 8c3d 04e5 883e 07d3 2f3b
000002f0: 88b3 f9bd b53c ca3c 7469 863d 5c92 dfbc
00000300: 6deb 093e 4988 2a3e e2d1 953e b3c4 05be
00000310: 4f6a 703e e6d9 2b3f 2e37 c93e 5ca9 58be
00000320: 027a 87bd fb01 a03e 7b2b adbe 25fb a4be
00000330: 9d75 a5be 708b c5bc d2c2 82bd 8b5d 79bd
00000340: 6299 08bc e810 a3bd 0c1c 193d c5f8 9c3c
00000350: 47b4 babd 359e b43e 294e ca3e 8a27 603e
00000360: db4b 643d 1276 673e 92e9 3c3f e302 2fbd
00000370: 8cf1 b13d 616c 753c fad6 a63e 378b 73be
00000380: 29e8 51be 0b4f 27bd e7ac 4e3d 22cc b03c
00000390: 895e 3dbe acc1 ffbd 0ac5 c1bc 0049 4dbd
000003a0: 64b1 9cbe 9a91 4fbe 2cb8 a0be 8fcb ef3d
000003b0: 98f5 0a3d c031 533e 237c 3d3b 7439 d4bd
000003c0: 7992 023e fdc5 04be ca3e 543e a3a2 a83e
000003d0: 6ef0 0b3e 40a3 9dbc 4585 85be cb21 a33e
000003e0: 0c36 233d dbe9 6cbe 77b4 e3bc 91e7 193d
000003f0: ac0b 73be 3a32 aebe 708d 0bbd 35ac 95bd

fc1.bias f4 [32]
0.26054007 -0.38814208 -0.3883537 0.23387413 -0.72291136 0.33759955 0.2622054 0.67341864
-0.67393154 0.08836682 -0.39038888 0.520981 0.48741594 1.0562698 -0.16939428 0.005590491
-0.020603757 0.56003857 0.42595577 0.49231675 0.40309754 1.0611902 -0.6659091 -0.7198389
-0.033755176 0.38083696 0.718156 -0.43563503 0.7930973 0.25586376 0.42247832 -0.58631873
00000000: 8265 853e 8fba c6be 4cd6 c6be b37c 6f3e
00000010: b810 39bf d9d9 ac3e c93f 863e 2a65 2c3f
00000020: c786 2cbf aaf9 b43d 0de1 c7be 035f 053f
00000030: 958e f93e d933 873f b275 2dbe 7030 b73b
00000040: 36c9 a8bc b05e 0f3f e016 da3e f110 fc3e
00000050: cd62 ce3e 15d5 873f 0579 2abf 5d47 38bf
00000060: de42 0abd 10fd c23e 12d9 373f 8e0b dfbe
00000070: 6d08 4b3f 9300 833e 144f d83e fc18 16bf

fc2.weight f4 [10, 32]
-0.53989553 -0.2381987 0.24418452 0.35905612 -1.0637112 0.49178705 0.30558074 -0.5947162
0.19660324 0.22575147 -0.8692229 -0.36070105 -0.83603233 -0.6681598 0.23526828 -0.8513354
-0.17917332 0.20077766 -0.50898856 0.7962418 0.44805744 0.10870071 -0.23276289 -0.14600635
1.0597812 -0.5888711 -1.3596723 -0.39094254 1.0357207 -0.26391053 1.2108496 0.2951433
1.0877278 -1.036115 -1.3880109 0.9201008 1.1291093 -1.2118886 -1.191076 0.46373242
-1.0241193 0.15012385 0.04975326 -0.07289261 -0.76886654 -0.84073365 0.67681086 -0.17977807
0.09910233 -0.60307425 0.43070617 0.055314265 0.5792023 -0.15443559 -0.7521099 1.1316417
0.1773139 -0.40194324 0.53178746 -0.74060416 -0.6628391 1.0686735 0.39520684 -0.35780165
-0.41147578 0.0014408615 0.78685975 0.83022183 0.26211944 0.96098715 -0.1542327 -0.4234127
0.72816414 0.43048006 0.11029766 -0.31821093 -0.083575964 1.5118465 0.2880592 -0.80377895
-0.40885162 0.4038338 -0.39067653 -0.15661953 0.17353426 0.63330615 -0.56083566 -1.1142781
0.39027402 1.2082217 -0.33960757 1.1171674 0.28819802 -0.19304769 -0.65716094 -0.49050695
-0.28394395 -0.07813621 0.05201986 -0.18755274 0.37500224 0.1175927 0.16864988 0.10816927
0.6002213 -0.38882855 0.24528112 0.49726546 0.7148991 0.13002828 -0.5335289 -0.09999958
0.4785889 0.18186574 0.66114527 -0.7492643 0.4775751 0.5032479 0.08803217 0.055877835
-0.6912918 0.15317117 0.1553189 0.29536188 0.0509975 0.7224184 0.07509028 0.75882936
-0.09690017 -0.44764233 -0.44299325 -0.98092055 0.029915217 0.8361596 0.5588404 0.17310543
0.15222166 0.5247305 -0.22058868 -0.41521728 0.6042825 0.17843395 -0.14214075 1.111709
-0.33968854 1.010223 -0.011815888 0.39982304 0.6704494 -0.35377017 0.30068803 -0.43942848
0.08164122 0.2152835 0.3704317 0.5384016 -0.33759865 -1.1999975 -0.29126328 -1.1126319
-0.48668808 -0.55721486 0.69951177 -0.8400531 0.24761349 -0.34794652 0.024189383 0.43498418
0.2748839 -0.38040245 -0.16906005 -0.28609183 0.19954373 -0.26282695 0.7499112 -0.10749231
1.046947 0.7811414 1.0458885 -0.9318391 -0.55792284 0.34468466 0.44952127 -0.539356
-0.060024615 0.07650379 0.67627156 0.6615869 -0.26705995 0.60357714 0.05826914 0.98248446
-0.7388472 0.88148975 -0.20872489 -0.1732907 -0.42828673 0.40531954 0.5021187 -0.72464997
0.68394834 0.4894516 0.69995964 -0.6736959 -0.42678076 -0.05899885 -0.15648466 0.3369481
0.36888096 -0.71857566 -0.29703718 -0.38180286 -0.13194461 0.8356868 -1.3761375 0.5645116
-0.18512066 0.9975616 -0.6341963 0.47242892 -0.79086304 -0.26988894 -1.2000996 0.37645364
0.21519734 0.39394015 0.3280573 -0.35463735 -0.37576398 -0.16182138 0.44116548 1.1326271
-0.18890683 -0.8433235 -0.8832244 1.1794748 -0.41563523 -0.13379644 0.902392 0.10864998
-0.68459135 0.58040184 -0.49113438 -0.79806644 0.2510073 -1.8955549 0.9022316 -0.82353884
-0.9863589 0.20876703 0.90565795 -0.43989003 1.0523963 -0.4413456 -0.4954063 -0.77085185
00000000: 9836 0abf 5cea 73be 820b 7a3e 34d6 b73e
00000010: b027 88bf 83cb fb3e 1475 9c3e 523f 18bf
00000020: 5c52 493e 652b 673e 6485 5ebf cfad b8be
00000030: 3706 56bf 850c 2bbf 2bea 703e 1ef1 59bf
00000040: 3679 37be a998 4d3e 134d 02bf 81d6 4b3f
00000050: c967 e53e 7a9e de3d 6559 6ebe b082 15be
00000060: e9a6 873f 42c0 16bf be09 aebf 9f29 c8be
00000070: 7f92 843f 481f 87be 1ffd 9a3f 061d 973e
00000080: aa3a 8b3f 6b9f 84bf 57aa b1bf ba8b 6b3f
00000090: a786 903f 2a1f 9bbf 2e75 98bf 566e ed3e
000000a0: 5716 83bf 11ba 193e 13ca 4b3d b948 95bd
000000b0: 70d4 44bf 523a 57bf 7a43 2d3f be17 38be
000000c0: 2af6 ca3d 1363 1abf 8585 dc3e 3691 623d
000000d0: 9a46 143f 5d24 1ebe 468a 40bf a3d9 903f
000000e0: c691 353e 81cb cdbe 3923 083f 3c98 3dbf
000000f0: d3af 29bf 4bca 883f 8d58 ca3e c731 b7be
00000100: f4ac d2be 4adb bc3a a46f 493f 6b89 543f
00000110: 8534 863e 4103 763f 2def 1dbe 8dc9 d8be
00000120: f768 3a3f e267 dc3e bde3 e13d 8bec a2be
00000130: e029 abbd 3084 c13f 7f7c 933e 75c4 4dbf
00000140: 0055 d1be 4ec3 ce3e c106 c8be df60 20be
00000150: f7b2 313e 5a20 223f ed92 0fbf aaa0 8ebf
00000160: ffd1 c73e 02a7 9a3f 0be1 adbe 57ff 8e3f
00000170: b18e 933e 4bae 45be b33b 28bf ba23 fbbe
00000180: 1a61 91be e105 a0bd c712 553d d30d 40be
00000190: 4b00 c03e 71d4 f03d 8eb2 2c3e da87 dd3d
000001a0: 1aa8 193f 8914 c7be f92a 7b3e 9499 fe3e
000001b0: a103 373f 2226 053e 5a95 08bf 94cc ccbd
000001c0: 9b09 f53e 033b 3a3e d140 293f c9cf 3fbf
000001d0: b984 f43e dbd4 003f 364a b43d 28e0 643d
000001e0: 80f8 30bf e7d8 1c3e eb0b 1f3e ac39 973e
000001f0: c1e2 503d 6af0 383f efc8 993d a442 423f
00000200: 9973 c6bd 6031 e5be 03d0 e2be 9c1d 7bbf
00000210: c210 f53c 8e0e 563f 2a10 0f3f 8d42 313e
00000220: ffdf 1b3e bd54 063f 00e2 61be 5c97 d4be
00000230: 42b2 1a3f 64b7 363e 588d 11be 7b4c 8e3f
00000240: a8eb adbe fd4e 813f 6d97 41bc 9bb5 cc3e
00000250: 92a2 2b3f 5d21 b5be c8f3 993e c5fc e0be
00000260: 8333 a73d 4773 5c3e 39a9 bd3e b0d4 093f
00000270: bbd9 acbe 8599 99bf 7620 95be b96a 8ebf
00000280: 2e2f f9be a2a5 0ebf 3413 333f b80d 57bf
00000290: 648e 7d3e 0c26 b2be d028 c63c 3fb6 de3e
000002a0: 95bd 8c3e 1cc4 c2be 141e 2dbe a17a 92be
000002b0: 3155 4c3e 4191 86be 2efa 3f3f ee24 dcbd
000002c0: 5c02 863f e2f8 473f addf 853f 028d 6ebf
000002d0: 08d4 0ebf 827a b03e a727 e63e 3c13 0abf
000002e0: 5fdc 75bd 05ae 9c3d 2220 2d3f c25d 293f
000002f0: 15bc 88be 0884 1a3f 9fab 6e3d 1a84 7b3f
00000300: 1725 3dbf 50a9 613f fabb 55be 1e73 31be
00000310: 6648 dbbe 0b86 cf3e da8a 003f a982 39bf
00000320: 3d17 2f3f 6699 fa3e 8e30 333f 5677 2cbf
00000330: 0283 dabe c7a8 71bd 843d 20be 7684 ac3e
00000340: f7dd bc3e 93f4 37bf 4215 98be aa7b c3be
00000350: 7d1c 07be 92ef 553f 4625 b0bf d583 103f
00000360: 4590 3dbe 3260 7f3f b05a 22bf 34e2 f13e
00000370: 0076 4abf e22e 8abe dd9c 99bf 88be c03e
00000380: b15c 5c3e 86b2 c93e 20f7 a73e 0793 b5be
00000390: 2364 c0be 81b4 25be 71e0 e13e edf9 903f
000003a0: cb70 41be 0de4 57bf ff1a 62bf 08f9 963f
000003b0: 24ce d4be ef01 09be 2a03 673f e183 de3d
000003c0: 6141 2fbf 3795 143f f775 fbbe 154e 4cbf
000003d0: 0784 803e 8ba1 f2bf a6f8 663f 71d3 52bf
000003e0: 0482 7cbf 06c7 553e 33d9 673f 4439 e1be
000003f0: ecb4 863f 0df8 e1be e5a5 fdbe 8c56 45bf

fc2.bias f4 [10]
0.9614094 0.22750813 0.14522421 0.06305594 -0.50886554 0.06432216 -0.50901854 -0.36449426
0.028788254 0.27433094
00000000: ed1e 763f e4f7 683e a8b5 143e 7923 813d
00000010: 0345 02bf 56bb 833d 0a4f 02bf fe9e babe
00000020: 58d5 eb3c 1b75 8c3e
